models/model_state.pth (torch, 19977 bytes, 35 tensors)

conv1.layers.0.lin_key.weight f4 [16, 8]
000000 1b 72 64 3d 1d 66 7e 3c b5 23 cf bc fc 0a 00 be
       0.055772882 0.015527275 -0.025285581 -0.1250419
000010 7d be b5 3b fa 42 d4 b3 05 bb 7a ae 0d d4 43 34
       0.0055463896 -9.884202e-08 -5.7009526e-11 1.8237934e-07
000020 98 a4 42 b7 36 9d e0 b5 ef 73 59 3e 6d 91 00 3d
       -1.1601624e-05 -1.6735055e-06 0.21235631 0.03138869
000030 1f fd ec 2e 17 f4 24 33 cb c2 98 3a b0 08 5f 36
       1.0777001e-10 3.8406224e-08 0.0011654733 3.3234646e-06
000040 b8 b9 7a 3b c0 25 dc 3c 47 77 cf bd 8a 86 5b bd
       0.003825767 0.02687347 -0.10130172 -0.053595103
000050 2c 5d bd 3a fd 2d b9 b3 d1 cb a8 23 f7 6f 9d 35
       0.0014447323 -8.623099e-08 1.8300916e-17 1.1729998e-06
000060 8f b4 03 bc 43 5e 08 bb 3f 19 85 3e 5e cf bc 3d
       -0.008038654 -0.0020808137 0.25995824 0.0921924
000070 e4 4a 41 bb 38 3a 69 bc e8 1f de 3c e8 39 cd 3b
       -0.0029494101 -0.014235072 0.027114823 0.0062630065
000080 9a 19 0e bd 10 6d 04 bd 01 62 01 3e 97 fe 3d 3d
       -0.034692384 -0.032330573 0.12635042 0.046385374
000090 96 e2 2e b9 6d a0 47 ab 35 66 83 bb c1 3a 4a b7
       -0.00016678343 -7.092164e-13 -0.0040099868 -1.2053818e-05
0000a0 1f 59 a5 3c b5 f5 67 3c 7b 8d ad be ce 78 a2 be
       0.020184098 0.014157702 -0.33897004 -0.31732792
0000b0 b5 38 86 3c 85 67 20 38 d5 93 bc bb ca 0e 15 35
       0.016384462 3.8243383e-05 -0.0057549276 5.5528346e-07
0000c0 df 53 93 3d b4 a1 a8 3d 0f 78 2f bd 05 6b 93 bd
       0.071937315 0.082339674 -0.042839106 -0.07198147
0000d0 ca 2b ad 34 1c fb f2 ba 68 1b 38 3a 0d 9f cb 3c
       3.2255622e-07 -0.0018537971 0.0007023127 0.024856115
0000e0 21 9b 58 bb c1 bd 34 bd dc bb 87 bd 62 71 a6 3e
       -0.0033051448 -0.044126276 -0.06627628 0.3250838
0000f0 9e 10 35 bb 1c df dc bb 28 a7 1d 35 2d ae 27 2c
       -0.0027628313 -0.006740464 5.87303e-07 2.3828814e-12
000100 25 b3 10 bd 8d d4 84 bc 22 4c 96 3d b1 41 37 3e
       -0.035327096 -0.016214633 0.0733874 0.17896153
000110 cf 77 f2 34 93 ed 7f 3c 2f 88 e7 b5 64 78 37 bc
       4.5163185e-07 0.015620607 -1.7250476e-06 -0.011198137
000120 0b cc 3d bd f8 84 64 bc 26 51 f6 bd c3 d5 8a bd
       -0.04633717 -0.013947718 -0.120271966 -0.06779053
000130 09 56 32 bc 2d e8 d0 37 b0 ab b9 ab c6 15 f2 39
       -0.01088477 2.4903647e-05 -1.3192693e-12 0.0004617406
000140 08 10 05 3c 2c e6 c1 3a ad b5 8a 3c 6e ad 37 be
       0.008121498 0.0014793328 0.016932333 -0.17937252
000150 e4 01 7c bc 1f 7b 33 32 cc e2 68 b1 ad bf ed 3b
       -0.01538131 1.0447166e-08 -3.3889362e-09 0.0072555155
000160 f8 35 8a bb 37 54 9a bc 41 2c 85 3e d6 db de 3d
       -0.0042178594 -0.018838985 0.26010326 0.10881774
000170 70 6c 3b b2 b7 5e 46 bc c0 15 aa 2e 01 ca 57 34
       -1.0909488e-08 -0.012107543 7.7345685e-11 2.0096924e-07
000180 14 e7 28 ba 14 8d 2f 34 20 a1 b1 3c 83 d4 41 be
       -0.0006443125 1.6349469e-07 0.021683276 -0.18928723
000190 30 a5 e5 35 56 98 d0 33 9c 92 a0 3a 1d a1 ff b4
       1.7109905e-06 9.7134645e-08 0.0012250724 -4.7614677e-07
0001a0 e6 57 35 3c a1 53 19 3d 90 18 0e be f3 f0 a2 bb
       0.01106832 0.03743327 -0.13876557 -0.004972571
0001b0 08 1e 1c ae f5 c5 c6 35 af 49 a9 b8 b5 aa cf b0
       -3.5496966e-11 1.4809763e-06 -8.0722726e-05 -1.510975e-09
0001c0 32 27 49 3a a0 85 1b 3d 3d 34 af bd 3f b8 a6 bd
       0.0007673382 0.03796923 -0.085548855 -0.08140611
0001d0 ab 13 b8 ba cd 5d 49 bc 77 63 9a b2 6c fb c7 ba
       -0.0014043947 -0.01229043 -1.7973191e-08 -0.0015257425
0001e0 a3 d1 e0 3c 6a 8b 35 bd e2 70 0c be 03 a0 13 be
       0.027443713 -0.04432241 -0.13714936 -0.14416508
0001f0 97 4e 2d 35 b2 2f 71 25 78 49 05 3c 4e 75 ac b5
       6.4561885e-07 2.0919578e-16 0.008135192 -1.2849139e-06

conv1.layers.0.lin_key.bias f4 [16]
000000 a7 90 41 3a ea 54 15 b3 c1 ec 76 3b 7b 7c 0a 3b
       0.00073839206 -3.4768995e-08 0.0037677737 0.0021131325
000010 6f 01 b7 30 5a 15 94 3a 93 3f 59 2f 49 57 b8 3c
       1.331541e-09 0.0011297867 1.9758621e-10 0.022502558
000020 3c 6f 8e bc 9d 65 a1 ba 8e 48 95 b3 58 d7 d1 30
       -0.017387025 -0.0012313608 -6.951551e-08 1.5267956e-09
000030 48 e1 c1 35 0d 39 c3 34 08 12 ff bb 5a aa b2 3b
       1.4445186e-06 3.636309e-07 -0.007784132 0.0054524364

conv1.layers.0.lin_query.weight f4 [16, 8]
000000 ff 59 4a 3c d4 cb a3 3d 90 42 f2 bd ad 5e a5 bd
       0.012350558 0.079978615 -0.11829102 -0.080746986
000010 cf 3a a5 36 ce 79 e3 b8 96 fa c6 36 13 57 51 3b
       4.9242294e-06 -0.000108468914 5.930032e-06 0.003194277
000020 a8 c4 65 be 45 7f 69 3d 76 26 a4 be b6 cd 79 bd
       -0.224383 0.05700614 -0.32060593 -0.060987197
000030 e8 9a 65 3c e7 a4 7c bc 28 68 bd ba 21 16 41 3a
       0.014013983 -0.015420175 -0.0014450597 0.0007365663
000040 d3 68 c5 3d 7d da 02 be 0f 17 cf 3d cf d4 80 b8
       0.09639134 -0.12778659 0.1011182 -6.143154e-05
000050 15 fe 9e 3b ff 6d 88 b9 56 a3 a7 3b 64 86 1a b7
       0.0048520663 -0.00026021895 0.0051159067 -9.210406e-06
000060 98 81 43 be bb 89 19 be 0b 17 4d be 9a e6 64 be
       -0.19092405 -0.14993946 -0.20028321 -0.22353593
000070 8f 03 de 35 86 94 3b 36 a0 82 c8 bc fa 5d 7d 3b
       1.6541325e-06 2.7951623e-06 -0.02447635 0.003866075
000080 99 5d 08 be ee aa 6a be 8b 2f 0c be 59 52 24 bd
       -0.13316955 -0.22916767 -0.13690011 -0.040117595
000090 10 45 9f 38 6f ae 99 ba b6 32 51 ba cc 95 a9 b7
       7.594575e-05 -0.0011724959 -0.0007980274 -2.0216125e-05
0000a0 0b 6b 80 3e 17 ed 21 3e ff cc a5 3d 83 86 9f 3e
       0.25081667 0.15813099 0.080957405 0.31157312
0000b0 c6 72 1b b5 b8 bb 2a 37 50 2c 65 3c af 04 43 37
       -5.7909017e-07 1.0176496e-05 0.013987616 1.1623996e-05
0000c0 7d d8 57 bd ea fc e2 3d 9d 0b 8b be 35 49 33 be
       -0.052696694 0.11083396 -0.27157298 -0.17508395
0000d0 4b 4e 94 3c 5c 0b 8e b7 0a 62 11 bb 74 51 0a b7
       0.01810374 -1.6933009e-05 -0.002218368 -8.244406e-06
0000e0 01 28 77 3c 90 ce a2 bd 50 f3 18 3e 3f ef 60 bd
       0.015085221 -0.07949555 0.14936566 -0.054915663
0000f0 59 fe d5 39 de 44 a0 b6 6c c1 b1 36 59 90 c6 b7
       0.0004081603 -4.776389e-06 5.2975283e-06 -2.3670656e-05
000100 7f 4a 40 3d 3a 0f 89 bb 7a bf bc 3d 5f 84 85 3c
       0.046946045 -0.0041827234 0.09216209 0.016298471
000110 da 3d 87 bc 42 22 41 37 47 08 fc 3b 8c f2 14 38
       -0.016508985 1.1511673e-05 0.0076914164 3.551184e-05
000120 d8 67 75 3d 5d 95 db bc 1c b4 e8 bc d9 ac 28 3e
       0.059913486 -0.02680462 -0.028406195 0.16472186
000130 15 54 c7 39 f8 7c 3e bc 77 7b 27 36 4d 13 61 bc
       0.00038018884 -0.011626475 2.4956805e-06 -0.013737512
000140 86 4d b7 bc 93 ea 86 bd ca fd 2e be 54 e6 95 bd
       -0.022375833 -0.0658771 -0.17089 -0.07319322
000150 17 9d f5 ad b3 a3 14 36 27 ee ac 3b 41 2a 3a 3a
       -2.7923037e-11 2.2149004e-06 0.0052774134 0.0007101633
000160 59 57 f2 bd 86 34 88 be 10 14 9d bd 21 0e af bc
       -0.118330665 -0.26602572 -0.07669842 -0.021369042
000170 01 01 66 bc 92 69 3a b7 41 97 c9 bb db 3c 95 b8
       -0.014038325 -1.1111044e-05 -0.006152064 -7.116209e-05
000180 80 94 b8 bd 73 11 b4 bd cb 13 28 be 3d 44 29 bc
       -0.09012699 -0.08792391 -0.164138 -0.010331211
000190 02 9b 54 aa f4 61 02 38 0f 30 92 38 57 f6 3c 37
       -1.8883162e-13 3.108564e-05 6.970774e-05 1.1263029e-05
0001a0 33 9c a2 bc 04 3d 04 bd c1 b5 88 be 82 9d 82 be
       -0.019849872 -0.03228475 -0.26701167 -0.25510794
0001b0 8e 02 ce bc 67 0d b1 b7 67 7e 6d bc 57 19 85 bb
       -0.025147703 -2.1106285e-05 -0.014495469 -0.0040618586
0001c0 15 77 a9 3d 43 c9 a5 bb 72 fe 01 ba 4e ce 09 be
       0.08274666 -0.0050593927 -0.0004958875 -0.13457605
0001d0 ff 22 76 3a 1f ff 0e 3c db e3 ed 34 35 69 72 38
       0.000938937 0.008727818 4.4310477e-07 5.7795278e-05
0001e0 75 53 d9 bd 5b 19 ab 3c c3 21 21 3e a5 cd 30 bd
       -0.10611621 0.020886114 0.15735535 -0.043164868
0001f0 03 b9 62 ac 3b a0 ab 3c 9b 10 19 b5 4c 8c 80 3c
       -3.2219234e-12 0.020950427 -5.7021106e-07 0.015691899

conv1.layers.0.lin_query.bias f4 [16]
000000 cc 03 24 bd 2b fb a1 bb f6 e7 c5 ba 0e a6 be bd
       -0.040042683 -0.0049432716 -0.0015099037 -0.09309016
000010 fa a1 bb ba 8b 3d 52 3e 95 23 0d 3c ac 7a 2d 3b
       -0.001431524 0.2053129 0.00861444 0.0026470823
000020 cd c9 ac bb 82 71 1f 3d 4b 97 36 bd e2 d2 a2 bc
       -0.00527308 0.03892661 -0.044577878 -0.019875947
000030 ec 94 ca bc 39 15 bf bc 7a de 0c ba 24 aa 16 3e
       -0.024729215 -0.02332555 -0.0005373728 0.14713341

conv1.layers.0.lin_value.weight f4 [16, 8]
000000 25 4c 8e bd eb 9f 87 3e e8 90 d7 3d c1 9b e1 3d
       -0.06948117 0.26489195 0.105256855 0.11016036
000010 89 93 2b b3 0c 45 11 bd b0 7b a8 3e a3 8e 8d be
       -3.9948223e-08 -0.03546624 0.32906866 -0.27647886
000020 b1 fb 43 3e 4c 2c 9d 3e d9 c3 90 3d 20 c9 a4 bd
       0.19138981 0.30697858 0.07068605 -0.08046174
000030 8c 1c 65 31 a5 1e 1b bd 04 fc 1b be 5f cb a6 3e
       3.3340113e-09 -0.03787102 -0.15232855 0.32577035
000040 15 73 fd 3d 44 69 4e bd 5b ad 8e bd 2f 7a fd 3d
       0.12375466 -0.050393358 -0.06966659 0.1237682
000050 75 14 ae 9b 65 ec 9b be 62 c6 41 3e a8 39 86 3e
       -2.8799105e-22 -0.30453792 0.18923333 0.26215863
000060 8b 07 05 be 60 dc de 3d c6 ff 2e 3e 43 97 27 3e
       -0.12991159 0.10881877 0.17089757 0.16366296
000070 7a 6f d9 bc 8d 6e 2f 3e a3 e1 51 3e 45 a0 df be
       -0.026542414 0.17132016 0.2049623 -0.43676963
000080 cf ab cf b9 db 19 c0 bd cf 16 71 3e c3 f2 94 bd
       -0.00039610124 -0.093799315 0.23543857 -0.072728656
000090 52 20 9c 39 67 69 73 3d e0 f5 61 3e 6d 09 97 3e
       0.0002977872 0.05942669 0.2206645 0.2949938
0000a0 01 90 9c 3d 25 a2 59 3e f6 81 d0 3e 7f 69 fa bc
       0.07644654 0.2125326 0.40724152 -0.030567883
0000b0 9c e7 11 3b 08 b2 02 be 4b eb df 3d e4 51 9f 3e
       0.0022263294 -0.12763226 0.109335504 0.31117165
0000c0 2a 39 5f bc d4 f4 4d be 51 3e bf be e8 9c 8e be
       -0.013624469 -0.20112926 -0.3735223 -0.27854085
0000d0 44 3c 04 3b 62 7d f9 be b4 70 95 3e 9e d5 28 be
       0.0020177523 -0.48728472 0.29187548 -0.16487738
0000e0 8a 48 46 bc ac 8d ba be cb b4 ca 3d 12 ac 50 be
       -0.012102256 -0.36436212 0.09897765 -0.2037814
0000f0 7f 66 59 3c bc 48 22 3b eb 9b ae 3e 2f 2f 07 3d
       0.013269066 0.0024762591 0.3410333 0.033003982
000100 6c 29 df 3e b5 49 81 3e 59 45 31 bb 38 a5 bb 3d
       0.4358629 0.25251547 -0.002704939 0.09162372
000110 3b cd db 22 e3 84 3e 3e 2f 94 9e 3c 68 a3 b3 3e
       5.9577365e-18 0.1860538 0.019357769 0.35085607
000120 37 bd 3b 3e db ba 14 3e 11 41 c2 be 93 ff 51 be
       0.18333898 0.14524405 -0.37940267 -0.2050765
000130 13 13 85 b8 c5 70 e0 be aa 40 3a bc d8 1f 81 be
       -6.345487e-05 -0.43836036 -0.011367956 -0.25219607
000140 d1 73 8c be 8e 41 d5 bd c6 14 65 3e ad 16 39 be
       -0.2743211 -0.10412894 0.22371206 -0.18075056
000150 e9 e8 f1 b7 92 de e9 3d 14 7b 6e 3e 1f a7 cf bb
       -2.8837896e-05 0.11419405 0.23289138 -0.006337061
000160 79 91 a5 3c 32 af 6f bd b6 df e6 bd ff 23 e3 3e
       0.020210968 -0.05851669 -0.11273138 0.443634
000170 17 7d 76 38 43 29 60 3e 9d 2c e6 be f8 4f 3a 3d
       5.876747e-05 0.2189074 -0.44955912 0.04548642
000180 53 ca b9 be 24 fd b3 be 0c bd 9b 3d 72 82 5c be
       -0.36287174 -0.35154068 0.07604417 -0.21534136
000190 0e 3f ad 2b 61 be 31 3e 0d 71 81 be f8 a8 07 be
       1.230989e-12 0.1735778 -0.25281563 -0.1324805
0001a0 78 61 73 3e 30 8a 0f 3e 31 99 62 be ae eb ed 3d
       0.2376765 0.14017558 -0.2212875 0.11617218
0001b0 b8 b0 c0 33 e7 9f d7 be b0 10 bd 3d 9f 63 31 be
       8.972842e-08 -0.42114183 0.092316985 -0.17323159
0001c0 3f 00 12 bd 16 5b 28 3e f8 ae da be 54 dc e3 be
       -0.035644766 0.16440997 -0.42711616 -0.44504035
0001d0 41 9b fe 35 8f 7a 88 bd 9f f5 bd 3e 70 3d 42 be
       1.896966e-06 -0.06664001 0.37101457 -0.18968749
0001e0 4c c5 40 3d 13 d1 8e be 4b 0b a7 be 2a c8 13 3e
       0.047063157 -0.27893886 -0.32625803 0.14431825
0001f0 e1 37 11 3b be 2d fa 3d 30 15 84 3e 26 e2 0c 3d
       0.002215855 0.12215756 0.25797415 0.03439536

conv1.layers.0.lin_value.bias f4 [16]
000000 70 4f 82 bd 1c 64 c0 3e a7 29 3d be eb 78 22 3d
       -0.06362808 0.37576377 -0.1847292 0.039666098
000010 6a cc 04 3f 68 ef 6c be 78 ee 04 be 7a 87 a8 be
       0.5187441 -0.23138201 -0.12981594 -0.3291586
000020 c2 49 e7 3e f9 80 88 3c 1d 74 b0 be 55 07 5f 3e
       0.4517346 0.016663061 -0.34463587 0.2178014
000030 d5 e4 e2 be db 76 98 be a1 58 68 be 05 9d 4e be
       -0.4431521 -0.2977818 -0.22690059 -0.20177086

conv1.layers.0.lin_edge.weight f4 [16, 2]
000000 63 6c 8b be 66 13 25 3f 0b 2e 4c 3e 51 22 e6 be
       -0.2723113 0.64482725 0.19939439 -0.44948056
000010 8e cd cd be 1b 08 fa 3d 67 76 88 3e 73 63 0a 3c
       -0.40195888 0.12208577 0.26652834 0.008446562
000020 c6 d7 29 bf f1 4f ac 3e 48 92 57 be 78 6a 02 bf
       -0.6634487 0.3365474 -0.21051896 -0.5094371
000030 5b 6a 35 bf a4 66 a1 bd f1 6c ef be 18 b0 f8 3e
       -0.7086541 -0.07880905 -0.46762803 0.4857185
000040 c0 fe 04 be 10 bd 0b bf 74 5f 1a 3f a6 d6 0c 3f
       -0.12987804 -0.5458536 0.603019 0.5501503
000050 f9 ff f4 3e 83 ca 0b 3e 8e 83 10 bf 9f bf 53 3e
       0.47851542 0.13651471 -0.56450737 0.20678566
000060 e3 6a b2 3e b0 cb 84 be 0d e8 13 bf 51 af 2f 3f
       0.34847173 -0.2593665 -0.57775956 0.68626887
000070 14 08 eb be 2d b2 5a be 14 44 ec 3e f9 75 1d 3e
       -0.459046 -0.21357031 0.4614569 0.15377034

conv1.layers.0.lin_skip.weight f4 [16, 8]
000000 5c ae 03 be ac e7 e1 bc 15 0a 5b be b0 f2 a2 3d
       -0.12859482 -0.02757629 -0.21390565 0.07956445
000010 21 a9 8b b9 8d d5 50 be b1 a6 64 3d 5c 5f 20 3c
       -0.00026638157 -0.20393963 0.05582303 0.00978836
000020 e5 64 b5 3e b8 8e b3 3e c7 e2 01 be 5a b1 45 bd
       0.3542854 0.35069823 -0.12684165 -0.04826484
000030 2d 68 32 35 77 ea 28 bd 1a 26 50 3d 86 b9 62 3e
       6.6461763e-07 -0.041239228 0.050817586 0.22141084
000040 4a 0b 13 3e ac 47 21 be 3f 27 37 3e 44 5b aa bd
       0.14359775 -0.15749997 0.17886065 -0.08318189
000050 40 43 d0 32 0b f7 ab 3d 9b 0b 5c bd 4f cf de bc
       2.4244969e-08 0.08396729 -0.053722005 -0.027198462
000060 06 76 d6 3c 4f 54 24 be 2c 0c b7 be 63 cd d8 be
       0.026179325 -0.16047786 -0.35751474 -0.42344198
000070 53 99 83 bc 5a 21 0b bd 5d 46 0f be 2c c3 aa bd
       -0.016064322 -0.033967353 -0.13991685 -0.08338007
000080 75 ec d6 bd 65 df 99 3d ea fe 4f 3e aa dc 87 3e
       -0.10494319 0.07513312 0.20312086 0.2653554
000090 ab 19 ae 3c 4b 67 fa 3d 11 d8 22 be 63 e8 b5 bd
       0.021252474 0.12226733 -0.15902735 -0.08882215
0000a0 72 b9 0b 3e d1 40 08 3e 0e fb 4e be c6 af e1 bd
       0.1364496 0.13305975 -0.20212957 -0.11019854
0000b0 69 3c 32 39 2f ba 2a be e1 aa 63 bc fa 36 9e 3e
       0.00016997907 -0.16672586 -0.013895721 0.3090132
0000c0 2f 52 20 3e 49 89 9b 3e e1 ed 74 bc 90 47 15 3e
       0.1565635 0.30378178 -0.014949293 0.1457808
0000d0 19 1d f0 b8 49 12 ca 3e fb 26 db be d3 c8 d6 3e
       -0.00011449512 0.39467075 -0.42803177 0.41950092
0000e0 47 4b 25 3e 8a c0 81 bd 06 7a c6 3d 31 d9 2e 3e
       0.16141997 -0.06335552 0.09691243 0.1707504
0000f0 ea 9e 07 3c 09 59 d3 be 43 8e e6 3d c5 15 97 3d
       0.008277634 -0.41278866 0.11257603 0.07377199
000100 6a 4b a0 3e a4 af ad bd 80 27 a4 3e 65 a4 70 3e
       0.31307536 -0.084807664 0.32061386 0.23500212
000110 0b c6 df b0 56 02 1d 3e d8 a4 34 be 42 46 6f 3e
       -1.6281673e-09 0.15332922 -0.17641008 0.23366645
000120 b8 5e 54 be f8 d3 84 bd 41 d0 cb be c4 98 a4 be
       -0.20739257 -0.06485742 -0.39807323 -0.321478
000130 bc ee 65 ae ec 09 49 bd dd e1 f6 3e 41 63 c7 bd
       -5.228061e-11 -0.049081728 0.48219195 -0.09735728
000140 b0 84 da 3c 62 d1 19 be dd 1a da 3c aa 95 4f 3e
       0.026674598 -0.1502128 0.026624138 0.20271936
000150 1e 25 ae 3a 23 e8 ef bd 3f 35 88 be 7d 8a 65 be
       0.0013286208 -0.117141984 -0.26603124 -0.2241611
000160 0d e3 27 be 08 f6 cb 3e ef 44 c9 be 4d 57 e1 be
       -0.16395207 0.39836144 -0.39310405 -0.44011918
000170 f5 37 12 bc e8 cc a9 be ad c4 83 3e c5 e9 08 3e
       -0.008924474 -0.33164144 0.2573599 0.13370426
000180 86 db 35 be da 74 d6 3d 94 24 e2 be 9c 6c 3d be
       -0.17759523 0.104715064 -0.44168532 -0.18498462
000190 7f 4c 54 3c 04 1f 52 3e f9 67 4b be 87 95 15 3d
       0.012957691 0.20519644 -0.19863881 0.036519554
0001a0 85 24 36 be 18 12 ea 3e 59 4d 32 be 3b 73 bd 3d
       -0.17787369 0.4571693 -0.17412318 0.09250494
0001b0 fc 37 d1 29 a7 98 56 3e ef b7 c7 be 23 55 b6 3d
       9.291176e-14 0.2095667 -0.39007518 0.08902957
0001c0 1b ea 3a be 8e 3b 02 be 67 f6 ad 3e 48 d6 59 3e
       -0.18253367 -0.12718031 0.33977053 0.21273148
0001d0 ff cd a7 2c 93 80 dd 3c d4 ce 76 be 38 b4 5f 3e
       4.7692956e-12 0.027038848 -0.24102336 0.21846092
0001e0 29 c8 31 be e2 82 5a be 44 cd 32 3e 1a e7 77 3e
       -0.17361511 -0.2133899 0.17461115 0.24209252
0001f0 43 0f 16 b1 15 72 aa be 38 1b 9c 3e 8e e2 35 bc
       -2.1836548e-09 -0.33290163 0.30489516 -0.011101378

conv1.layers.0.lin_skip.bias f4 [16]
000000 6f cc 9d bc 0a 40 18 be d6 fc 3c 3e ec a9 b2 be
       -0.01926252 -0.14868179 0.18455824 -0.34895265
000010 f3 67 9d 3e 43 60 4b be ac 10 94 3e 26 e1 c3 3c
       0.3074337 -0.1986094 0.2891897 0.02391107
000020 05 21 92 3d 6c 21 b9 bd a6 10 10 be 08 cc f1 bc
       0.07135204 -0.09039578 -0.14068851 -0.029516235
000030 c2 99 47 3e 7b 8a 5a bd 9e ad 82 be 3f 07 17 3c
       0.19492248 -0.05335472 -0.25523084 0.009218036

conv1.layers.1.lin_key.weight f4 [16, 8]
000000 75 5b ca bd 60 ef f4 bd c2 b0 1f be e6 d7 43 3d
       -0.09880725 -0.1195972 -0.15594772 0.04781332
000010 a4 58 8c bc 86 1d d5 bd cc 60 e0 3d 7c 45 bd bd
       -0.01713211 -0.10406022 0.109559625 -0.09241769
000020 46 d6 2b 3e 94 2e 4d 3e 28 63 3a 3e 52 dc 0a ba
       0.16780958 0.200373 0.18201888 -0.00052971125
000030 78 d1 bc 35 ac 11 58 bd 65 c7 cd 3c c5 81 35 bc
       1.4068055e-06 -0.05275123 0.025119493 -0.011078303
000040 dd f4 51 bb 79 fe d2 3d 53 de 07 3d ae b0 b8 bd
       -0.003203682 0.10302443 0.03317101 -0.09018074
000050 17 65 c3 3c 22 58 73 3d f9 33 c5 bd a3 6c c0 3c
       0.023851914 0.059410222 -0.096290536 0.023489302
000060 1f 71 d5 3b 94 eb fe 3d 10 99 bc be 2a b0 20 be
       0.006513729 0.12447277 -0.36835527 -0.15692201
000070 71 a2 a5 3c 51 3d d0 3d 2a 8c 0b be 56 37 48 bd
       0.02021906 0.10167945 -0.13627687 -0.048880897
000080 4e 56 df 3d 51 c9 81 3e 23 1b f9 3d f0 fa a1 bd
       0.10905133 0.25348905 0.12163379 -0.07909191
000090 43 4a eb 2f db f6 20 bd c0 12 49 3e fa 02 c4 bd
       4.2799017e-10 -0.03929792 0.19636059 -0.0957088
0000a0 e4 20 b2 3d 4e de 35 3c c2 b6 20 3e e6 94 35 3e
       0.0869768 0.011100365 0.15694717 0.17732581
0000b0 51 53 1d b3 3d e8 32 be ee a5 28 3e 57 b7 9f bc
       -3.6630187e-08 -0.17471404 0.16469547 -0.019496603
0000c0 15 b3 61 bd 79 6d 05 be 5b a8 59 be 15 e7 28 be
       -0.055102427 -0.13030042 -0.21255629 -0.16494401
0000d0 72 c9 16 3c a1 bf 92 3d 2a 75 7a bd ea 98 6a 3e
       0.009203302 0.071654566 -0.061146893 0.22909895
0000e0 2f c5 cd 3e 22 db a6 3d 76 ca 69 bd 46 81 57 3e
       0.40189502 0.08147265 -0.057077847 0.21045408
0000f0 2e 96 ed b9 7b 32 c1 bd 73 dd 47 3d 58 44 f4 bd
       -0.00045316055 -0.094334565 0.048795175 -0.11927098
000100 5c 13 46 3e 0e 55 3a 3e 7f 68 30 3e 52 9d 2b be
       0.19343323 0.18196508 0.17227362 -0.16759232
000110 e1 c2 06 bc 9a da c6 bd e6 1d ce 3d e3 08 4a be
       -0.008225174 -0.09709664 0.100642964 -0.19729953
000120 49 00 a6 bd 0d 93 ad be 61 e0 ba 3d fc aa 97 bd
       -0.08105523 -0.33901253 0.09124828 -0.074056596
000130 bc 5a 76 35 54 90 a2 3d 8d b7 33 be 0a 45 f6 bc
       9.177418e-07 0.07937685 -0.17550488 -0.030062217
000140 88 48 f4 bb ed 56 3e bd ff b2 96 3e 41 c7 24 3d
       -0.0074549355 -0.046469618 0.29433438 0.040229086
000150 62 2b b9 bc 03 30 cf bd ae 4d 95 bc a5 dd dc bd
       -0.022603694 -0.101165794 -0.018225517 -0.10784463
000160 5b 42 aa 3e 0e 03 39 3e db 4e 32 3e f9 4b 84 3d
       0.3325375 0.18067572 0.17412893 0.06459803
000170 f2 d3 c4 b5 1d bc 4a bd 97 97 c6 3d 4a 2f a0 bd
       -1.4664822e-06 -0.049495805 0.09696882 -0.0782152
000180 a3 16 74 3d 9b f1 f5 bc f5 c4 a0 3d 1d 38 8e 3e
       0.0595919 -0.030022433 0.078500666 0.27777186
000190 74 2f e3 b5 47 82 c7 bd 7d db 6f 3e b1 05 45 3c
       -1.6926629e-06 -0.09741645 0.23423572 0.012025283
0001a0 e3 30 07 3c f9 41 c6 3d 4b e1 c9 3e b8 5b 11 ba
       0.008251402 0.09680552 0.39429697 -0.0005544978
0001b0 43 e3 82 3c 6c fd 48 bd f7 9d c8 3d e8 97 da bd
       0.015977507 -0.049069807 0.097957544 -0.10673505
0001c0 a1 66 eb 3d 8a a4 c9 bd 71 56 6d 3e 6d ef 5a 3c
       0.11494184 -0.098458365 0.23177506 0.013362748
0001d0 fa b8 9c bc 86 42 d0 bd de d6 36 3d b0 be 59 be
       -0.019131172 -0.10168938 0.044638507 -0.21264148
0001e0 e7 bd 11 bd 5f b8 0c be 47 f2 02 be a8 ba 88 3c
       -0.035581496 -0.13742207 -0.12787734 0.016690567
0001f0 21 73 45 bc 03 e0 e0 bd 0a 78 c8 3d bc c9 1d be
       -0.012051375 -0.10980227 0.09788521 -0.15408987

conv1.layers.1.lin_key.bias f4 [16]
000000 10 f4 9b bc 0e c0 32 3e f8 78 1e 3d 96 6b 45 3c
       -0.019037277 0.17456076 0.038689584 0.012049576
000010 32 6c d8 3d 9f 18 b6 3d cd 88 9e 3d 33 16 27 bd
       0.105675116 0.08891415 0.077409364 -0.040792655
000020 59 f1 48 3e 58 84 fd bd 34 1a 4f be 1b f3 41 3e
       0.19623317 -0.12378758 -0.2022484 0.18940394
000030 6b 65 4b 3d cd a6 99 3d 8c 80 a5 be c1 c9 f8 bd
       0.049657267 0.07502518 -0.32324636 -0.121478565

conv1.layers.1.lin_query.weight f4 [16, 8]
000000 1c 42 07 3e 0a 91 55 bd 2e 8f 05 bd db 62 e6 3d
       0.13208812 -0.052140273 -0.03260725 0.11249324
000010 ed f2 00 bb 54 3e f4 39 43 b6 c2 3c 94 50 03 3a
       -0.0019676045 0.00046585745 0.02376855 0.00050092605
000020 28 50 b1 3e 5b 02 b0 3d 82 94 89 3e 00 b8 f0 3d
       0.34631467 0.08594199 0.26871115 0.11753845
000030 c0 41 82 ba 81 5d 9c ba 3c cb c6 bc fa ff b8 bb
       -0.0009937808 -0.0011929722 -0.024266832 -0.005645749
000040 fe 4a 7a bd c8 6e 47 bd 8d dd ca be 9e 61 ad be
       -0.061106674 -0.048689634 -0.39622155 -0.33863539
000050 d7 76 44 3c 46 90 b1 ba b8 41 dc 39 ed 88 ed ba
       0.011991224 -0.0013547025 0.00042010634 -0.0018122472
000060 6c 84 39 be a1 e4 0b be 79 5c 9f bd 14 ad 6f be
       -0.18116921 -0.13661434 -0.0778131 -0.23405868
000070 92 7b 84 32 9b 0e 2b 3a ae 7b 1c b9 e6 32 19 3a
       1.5423016e-08 0.00065253087 -0.00014923394 0.0005844071
000080 e3 fc 75 3d 09 71 53 3d 1d 57 bb 3c 91 22 77 be
       0.060055625 0.05162147 0.022868687 -0.2413428
000090 48 b1 91 b4 53 d9 66 3a c9 27 c4 b8 f3 b7 1c 3a
       -2.7137344e-07 0.00088061875 -9.353419e-05 0.00059783383
0000a0 fc 13 1f 3e cb 37 78 3e fd c9 94 3d a3 db ba 3e
       0.15534967 0.24240033 0.07265089 0.36495695
0000b0 7a 1d fc b0 41 c3 2f ba 03 68 67 39 e0 6c 59 3c
       -1.8343791e-09 -0.00067048153 0.00022068624 0.013270587
0000c0 50 e0 4d be 4f 67 2b be 32 4c 17 be 9b bf a0 be
       -0.201051 -0.16738628 -0.1477516 -0.31396183
0000d0 7d 16 39 b4 d7 53 89 3a 40 cb ad b9 ae 29 ad 3a
       -1.7237649e-07 0.0010477257 -0.00033148564 0.0013211274
0000e0 ce 69 f8 3c 5d 15 21 3c 1c 6e bd bc d1 64 63 3e
       0.03032389 0.009831754 -0.023123793 0.22206427
0000f0 8f ee dc b3 09 fa c4 39 1b 8f 06 b9 16 18 0e 3a
       -1.0287942e-07 0.00037570324 -0.00012832547 0.0005420459
000100 57 6c 49 bc fc 29 a6 3d 54 ea ee 3d d2 5a 16 3e
       -0.012293897 0.08113477 0.11665788 0.14683083
000110 32 d1 d5 bc 70 1d 88 ba aa 40 a9 39 b3 48 93 bb
       -0.026100729 -0.001038475 0.0003228237 -0.0044947504
000120 0f f4 1b 3e ac 2e 49 be eb c9 2c 3d 50 65 1e 3d
       0.1522982 -0.1964671 0.04218475 0.038670838
000130 fc 04 c7 35 4a de a3 3b c6 95 d4 38 ab a7 bb b9
       1.4828106e-06 0.005000864 0.00010136845 -0.00035792342
000140 86 12 ac 3d ad 6f 85 3e e0 75 bd 3e 44 9b 39 3e
       0.084019706 0.26061764 0.37003994 0.18125635
000150 bd 3d dd b5 9e cc 93 3b 9b c8 0e 3c e7 41 f7 3b
       -1.6483751e-06 0.0045104763 0.00871482 0.007545698
000160 e4 26 98 3e 63 ae 95 3e 06 a8 be 3e 8e c3 8f 3e
       0.2971717 0.2923461 0.37237567 0.28078884
000170 47 b9 1c 33 55 d2 3a bb e5 a6 da 39 12 73 60 bc
       3.649009e-08 -0.0028506715 0.00041704546 -0.01369931
000180 50 82 54 3e e8 d0 51 3e 8e 9b 3b 3d f6 e0 84 3e
       0.20752835 0.20489848 0.045802645 0.25952882
000190 66 e3 64 bc 6f cf 56 bb 9c aa ae 38 a8 ae ed b9
       -0.013970232 -0.0032777449 8.328745e-05 -0.00045334292
0001a0 b3 d5 d2 3d e4 54 31 3e 7e 8d 5a 3e 76 84 37 3e
       0.10294666 0.1731754 0.21343037 0.17921624
0001b0 57 88 67 2f 87 19 0a bc fb 32 c3 3b f0 b1 01 bb
       2.1057765e-10 -0.008428938 0.005957005 -0.0019789897
0001c0 82 e5 12 3e a4 c4 5b 3c ff 79 c5 3e 25 5e 63 3e
       0.14345363 0.013413582 0.38569638 0.22203882
0001d0 78 34 ec b7 a6 fa 3b ba 1b f4 3f bc df 0d cd ba
       -2.8157825e-05 -0.00071708334 -0.011715914 -0.0015644393
0001e0 70 11 1a bd 8e 58 28 3e e6 93 62 bb fa 08 f7 bb
       -0.037614286 0.16440031 -0.0034573018 -0.007538912
0001f0 c0 a5 0d bc 99 4c fb 3a 56 61 58 39 a5 9c 5d ba
       -0.008645475 0.0019172608 0.00020635626 -0.0008453823

conv1.layers.1.lin_query.bias f4 [16]
000000 98 c3 ad bc c3 59 80 3e 85 ee db bd f6 f0 82 be
       -0.02121143 0.25068483 -0.10738853 -0.25574464
000010 a7 cf 05 be aa 16 5d 3e 7e 0c 0d be 12 ea 13 3c
       -0.13067494 0.21590677 -0.13774297 0.009027975
000020 96 9c f4 3d 40 75 12 3d 0d 66 85 3e 0c bb ce 3e
       0.11943929 0.03575635 0.2605442 0.4037708
000030 ba 67 fd 3d ab 86 dc 3e f7 cd 80 3d 28 8f b9 3d
       0.123733 0.43071494 0.06289285 0.09060508

conv1.layers.1.lin_value.weight f4 [16, 8]
000000 f2 fa 8e be 31 5f 46 be 2e 05 0e be 9a d5 cc be
       -0.2792583 -0.1937225 -0.13869163 -0.40006715
000010 16 32 26 b4 9a d7 3d be 69 70 a2 3e 41 d6 22 bd
       -1.5478176e-07 -0.18539277 0.31726387 -0.03975511
000020 d4 92 be 3d 97 eb b1 3e a5 60 a1 be 02 54 14 3e
       0.09305349 0.34750053 -0.31519046 0.14485171
000030 cb a2 90 b5 a8 73 d7 3d 30 65 03 3e 56 c1 95 be
       -1.0776215e-06 0.105201066 0.12831569 -0.29249066
000040 8b 60 c4 3e 68 a8 8d be bd 60 37 be fb dc df bd
       0.38354906 -0.27667546 -0.17907996 -0.109308206
000050 aa 94 c5 33 0f 1f 0c be cb bf 8a 3e da 2b b4 bd
       9.200569e-08 -0.13683723 0.2709945 -0.087974265
000060 99 d6 c5 be 65 75 0e bc 17 8a 44 be 31 44 5c 3d
       -0.38640288 -0.008694981 -0.19193302 0.05377597
000070 b8 46 e5 b5 98 86 16 3e ed e1 e2 bd 2b e4 fe 3b
       -1.7082411e-06 0.14699781 -0.11078248 0.0077786646
000080 b1 99 aa 3e 4c be ac 3d 7d 2b 3e 3e a6 dc 85 3e
       0.33320382 0.08434734 0.18571277 0.26144904
000090 47 01 0f b7 07 01 a0 3e e7 bd d9 be c5 32 49 be
       -8.523762e-06 0.31250784 -0.42527696 -0.19648273
0000a0 3c 0f 08 3e 1f e5 69 bd 33 bb b5 3c 66 46 a2 3e
       0.13287061 -0.057103273 0.02218399 0.31694335
0000b0 03 62 02 2c 33 ad 93 3e ab b9 73 be 18 8b 5b 3e
       1.8528519e-12 0.28843078 -0.23801295 0.21439779
0000c0 51 4f bd be e4 04 b6 be 15 0e fd be 7f 87 f1 bd
       -0.36974576 -0.35550606 -0.49424806 -0.11793422
0000d0 cf 52 81 bc cc 79 1f 3e ca ee f8 3e 9c 00 1a 3e
       -0.015786557 0.15573806 0.48619682 0.15039295
0000e0 29 cd 0c be ab b5 d2 be 56 bb 50 be e2 35 0d 3e
       -0.13750137 -0.41154227 -0.20383963 0.13790086
0000f0 81 38 00 34 02 da 85 be ce 37 8e 3e ac 48 25 3e
       1.1941485e-07 -0.2614289 0.2777695 0.16141003
000100 52 e5 61 be c4 e2 78 3e c2 ba 66 3d ef 03 3d 3d
       -0.22060135 0.24305254 0.05633045 0.04614633
000110 94 9b 48 3c f1 cc 2d 3c 2c ab 7e be f4 e6 b7 bd
       0.012244124 0.010607944 -0.24869984 -0.08979598
000120 1c 38 c9 3d 8f 01 c6 be df 71 d6 be 86 fc a0 bc
       0.09825155 -0.38673064 -0.41883752 -0.019651663
000130 3a 62 ae 3b b1 66 6b be 00 ed c9 3e 4c da 00 3e
       0.005321768 -0.22988392 0.3943863 0.12583274
000140 2a 5c c7 be f8 11 9f be c6 b5 72 3e 12 9f e0 be
       -0.38937503 -0.31068397 0.23702154 -0.4387136
000150 3a d4 14 bc 94 67 28 3e 3e f1 44 3e 3b 0b 06 3e
       -0.009083802 0.16445762 0.19232652 0.13090222
000160 b5 ec 40 be c3 09 e5 bd bb 0a 7d 3e 76 48 87 3e
       -0.18840297 -0.111835025 0.24711125 0.2642247
000170 fd f4 30 bc 70 e0 85 3d 17 9d d5 be 55 12 cf 3e
       -0.010800597 0.06536949 -0.41721413 0.40443674
000180 b2 3e c1 be f9 94 9d bd 00 79 f8 be 01 55 84 3c
       -0.37743145 -0.0769443 -0.48529816 0.016153814
000190 a3 28 32 ba d6 91 f3 bd 8e be a5 be 9a 86 c6 3e
       -0.00067962165 -0.118930504 -0.32371944 0.38774568
0001a0 06 b1 30 3e 53 97 c1 3d fe ee 88 bd 78 55 41 be
       0.17255029 0.09452691 -0.06686209 -0.1888026
0001b0 25 18 d6 b7 93 f2 c5 3d a1 02 3d be 55 9f 44 be
       -2.5522031e-05 0.09665408 -0.18458034 -0.19201405
0001c0 96 56 3a be 8d 4b 41 3e 0f a1 be bd 2d 44 7d 3e
       -0.18197092 0.18876477 -0.09308063 0.24733038
0001d0 de 25 08 b7 2e 54 2c be 58 5f 6e 3e 2a 13 03 be
       -8.115048e-06 -0.16828987 0.23278558 -0.1280028
0001e0 39 7b a1 be 9d 3f 58 3e a2 7b 08 3d 1a fb ab be
       -0.31539324 0.21118017 0.03332103 -0.33590013
0001f0 6d 67 64 ae a2 f6 db be 19 dd f0 3e 7f 03 09 3d
       -5.193306e-11 -0.42961603 0.47043684 0.0334506

conv1.layers.1.lin_value.bias f4 [16]
000000 74 c5 88 be 4f 0a 57 bd ba 79 8c 3e b2 03 16 3e
       -0.26713145 -0.052500065 0.2743662 0.14649847
000010 e0 e3 d0 3e 3f 02 1a 3e de 04 ee bd dd 19 f9 bd
       0.40798855 0.1503992 -0.11622022 -0.12163136
000020 c3 05 2a 3e 1d 62 4b be ad 14 ed bd 14 af d9 bd
       0.1660376 -0.19861646 -0.11576209 -0.106290966
000030 ca 08 f6 be 0a 7f 62 be 82 ca 69 be 94 ff 14 3e
       -0.4805358 -0.22118774 -0.22831157 0.1455062

conv1.layers.1.lin_edge.weight f4 [16, 2]
000000 62 c4 68 be c1 08 a5 3d 44 c9 20 bf 52 c1 e1 3e
       -0.22731164 0.0805831 -0.62807107 0.44092804
000010 54 c2 81 3d 95 58 23 bf 8a 55 7b 3d 63 04 87 3e
       0.06335893 -0.6380704 0.061360873 0.26370534
000020 bf 98 1b bd ee a4 fe 3d ec f2 a0 3e e7 fd 32 be
       -0.037987467 0.124338016 0.31435335 -0.17479669
000030 2d e0 11 bf f9 d7 8a 3e 5d 2b 45 bf 85 47 3f be
       -0.5698269 0.271179 -0.7701929 -0.18679626
000040 a8 0e 2f be 92 e2 18 bf 1c 6a 25 3d 28 ca 05 be
       -0.17095435 -0.5972072 0.040384397 -0.13065398
000050 ff ce 4d 3e 70 43 4a 3f 49 9d 60 be 18 ef 43 bf
       0.20098494 0.7900915 -0.21935 -0.76536703
000060 83 79 08 bf 80 74 c9 be 58 d9 16 3f e1 92 f6 be
       -0.5331041 -0.39346695 0.5892539 -0.48158935
000070 5d 4e c8 3e dc 6d 4e be a9 c1 96 3d 24 b2 90 be
       0.39122286 -0.20159096 0.073611565 -0.2826091

conv1.layers.1.lin_skip.weight f4 [16, 8]
000000 da 94 ab bc cd 5e 31 be 13 c4 40 be 4c 22 e6 be
       -0.020945001 -0.1732132 -0.18824796 -0.4494804
000010 28 49 84 b2 87 69 a8 3d 56 9b 0c 3e cc 59 27 be
       -1.540009e-08 0.08223253 0.13731131 -0.16342849
000020 bb 52 14 be e2 da 1c 3e cd b4 69 3d 19 ed 2c 3e
       -0.14484684 0.15317872 0.05705719 0.1688732
000030 1b 99 67 3b 18 bc f5 bd 9c 8a dc 3d db 1b dc bd
       0.003533906 -0.11998767 0.10768625 -0.107475005
000040 1c ca a4 3e c0 06 26 be 3f 4e f9 3d ec ab 2d 3e
       0.32185447 -0.16213512 0.121731274 0.16960114
000050 b1 08 a6 3c 90 81 05 3e d9 54 52 3c 61 2e 52 3e
       0.020267816 0.13037705 0.012837612 0.20525505
000060 b4 e5 74 be ca 69 14 3e 36 b8 13 3e 8c d4 45 3e
       -0.2391575 0.1449348 0.1442574 0.19319361
000070 8e 59 f0 39 26 99 9c bd b1 fd 45 3e 10 66 36 be
       0.0004584309 -0.07646398 0.19335057 -0.17812371
000080 0b 5f 6e bd bc eb 17 38 ed e1 b7 3e 80 56 9f 3e
       -0.05819611 3.622075e-05 0.35914555 0.31120682
000090 be dd 43 bc ef db 86 3c b7 3a 4f be da 1e a9 3e
       -0.011954723 0.016462294 -0.20237242 0.3303135
0000a0 df 0e ab 3c 53 10 c0 3e 0d dc 77 be c0 b1 14 3d
       0.020881115 0.37512454 -0.24205036 0.036302328
0000b0 98 82 82 a0 a2 7b 1f 3e d8 81 54 3e 32 94 da 3d
       -2.2109276e-19 0.15574506 0.20752656 0.10672797
0000c0 06 7e ed 3e 4c ba 06 3e 55 dc 79 bd 27 36 71 3e
       0.4638521 0.13157004 -0.06100114 0.23555814
0000d0 27 48 f2 28 94 f1 53 bc 4d b3 74 be 5a f2 c6 3e
       2.6898688e-14 -0.012936015 -0.23896523 0.38856775
0000e0 d3 cb ec be 86 27 51 bd d9 18 b3 bc 9c 04 bd be
       -0.46249256 -0.051063083 -0.021862434 -0.3691758
0000f0 2c 07 28 3c 78 6d 12 3e be 07 51 3e 98 92 a9 be
       0.010255616 0.14299572 0.2041311 -0.33119655
000100 39 1a 46 bd 08 5c ce 3e f3 04 ac 3d 2b 62 0f 3f
       -0.04836485 0.4030459 0.083993815 0.5600917
000110 a4 a4 c4 ba 95 5b 94 3e 2a 54 a5 bd 42 cd eb 3e
       -0.001500268 0.28976122 -0.08072694 0.46055037
000120 e7 57 d6 be c8 4b fe bd 08 8f ec be 35 e7 76 be
       -0.4186394 -0.12416798 -0.46202874 -0.24111636
000130 0c 7f 80 3b 2f 9f b9 be b4 b7 ba 3e b6 e8 dc be
       0.003921395 -0.3625426 0.3646828 -0.43146294
000140 57 64 90 be 8a 76 d5 be 48 a2 53 be 13 73 0d be
       -0.28201553 -0.41692 -0.20667374 -0.13813429
000150 6d 67 65 bc e6 88 5a 3e e7 b9 c2 3d 02 29 80 3e
       -0.014001709 0.21341285 0.09508114 0.25031286
000160 76 e7 c9 3e 3c df f4 3b 39 70 15 be 23 40 98 bc
       0.39434403 0.0074729007 -0.14593591 -0.01858527
000170 20 6e 44 38 99 3a 06 3d 83 41 9c bb c3 63 11 be
       4.6832603e-05 0.032770727 -0.004768552 -0.14198212
000180 2f 58 de be d4 ba db 3d 51 03 98 be fd e8 a4 be
       -0.43426654 0.10728994 -0.2969003 -0.32209006
000190 e8 77 0d b6 c5 e5 46 3d 2a 8b 02 3e 79 61 b9 bc
       -2.1080432e-06 0.04855897 0.127484 -0.022629486
0001a0 64 6f 00 3e 23 3c 10 be ee 11 da 3e 97 cf 90 bc
       0.12542492 -0.1408544 0.42591804 -0.017677112
0001b0 a5 85 8c b9 5e cb e8 bd 26 c3 1c bd 14 9d 15 3d
       -0.00026802454 -0.11366914 -0.038272046 0.036526754
0001c0 b6 b1 9d 3e ea a4 89 3e fb 73 dd 3e 18 91 db 3e
       0.30799645 0.26883632 0.4325255 0.42884135
0001d0 3f 70 91 3b cf bd a4 bb 36 7f aa be 3f 10 cc bd
       0.0044384296 -0.0050275098 -0.3330018 -0.09964036
0001e0 f7 c6 de be 66 e0 fc be 38 48 88 be 84 50 f0 3c
       -0.43511173 -0.49389952 -0.266176 0.029335268
0001f0 9c 6d 64 39 c3 49 43 be 0f 63 00 3f 32 d3 5d be
       0.00021784607 -0.19071107 0.5015115 -0.21662596

conv1.layers.1.lin_skip.bias f4 [16]
000000 4f 01 89 3d 9f ba 12 3d 4d ba d4 3e 85 30 22 3e
       0.06689703 0.035822507 0.41548386 0.15838821
000010 c4 5b d7 bd b3 89 86 be 06 42 49 3e 4d 7d 0b 3e
       -0.1051555 -0.2627693 0.19654092 0.13622017
000020 ee 9a eb 3e 54 96 24 3e 57 e6 cb ba fe d2 15 3d
       0.4601664 0.1607297 -0.0015556318 0.03657817
000030 20 fd d1 be 7f 71 9d 3d dd e4 09 be 44 78 ad 3c
       -0.41013432 0.07687663 -0.1346621 0.021175511

conv1.layers.2.lin_key.weight f4 [16, 8]
000000 08 fa 7e bd f4 af 89 bb 15 b0 34 3d 3c a2 84 3e
       -0.062250167 -0.0042018835 0.044113237 0.25905025
000010 60 80 84 3b c3 a4 cc 3d 45 5d 1b be 9d 02 64 3e
       0.004043624 0.09992363 -0.15172298 0.22266622
000020 2b c8 99 bc dd 5c 91 3e c1 eb f6 3d 38 2d b7 bd
       -0.018772205 0.28391162 0.12056685 -0.08944172
000030 f2 0d fe b8 c2 ef 49 be c4 12 cd 3d b9 11 e9 bd
       -0.00012114261 -0.19720367 0.10013345 -0.113803335
000040 3b bd 98 bd 3d 4d 3f be 57 27 56 bd d8 be a5 be
       -0.07457968 -0.18681808 -0.05228361 -0.32372165
000050 fd 00 85 3c 8f 8b cd bd 82 38 4b bc 77 b5 0f be
       0.016235823 -0.10036384 -0.012403609 -0.14034067
000060 96 0b 93 be 53 c2 07 be bc db 1c be 66 16 63 3e
       -0.28719777 -0.13257723 -0.15318197 0.22176513
000070 fb 2d 94 bb 56 8d cb bd fb bb cb 3d b5 0f 28 be
       -0.004522083 -0.09939067 0.09947964 -0.16412242
000080 39 bc 75 be ba d3 c1 bc d2 b3 c7 3d 00 48 d6 bd
       -0.23997582 -0.02366053 0.09751095 -0.10462952
000090 f6 bf a2 bc d5 f3 cc 3d fe ed 21 be df be 60 3e
       -0.019866925 0.10007445 -0.15813443 0.21947812
0000a0 5f 1e 32 3d c7 e8 05 3e 97 df fc bd 92 f6 16 be
       0.043485995 0.13077079 -0.12347334 -0.14742497
0000b0 86 57 18 b3 b1 2e 12 be 91 40 af 3a 02 00 d0 bd
       -3.546986e-08 -0.14275624 0.0013370683 -0.101562515
0000c0 38 ef 55 bd 33 ef 6e be 42 30 6b be a2 89 76 3d
       -0.05223009 -0.23333435 -0.22967628 0.06018985
0000d0 a5 c6 d6 33 49 c7 cc bd 80 71 d6 3d f7 5b d0 bd
       1.0001285e-07 -0.09998948 0.10470867 -0.10173791
0000e0 00 0b 8c bd 88 f6 0f 3e 44 9a 19 3e 89 76 9c be
       -0.068380356 0.14058888 0.15000254 -0.30559185
0000f0 9a aa 64 38 e7 d2 09 be 25 68 cc 3d 79 eb b5 bd
       5.451832e-05 -0.13459359 0.099808015 -0.088828035
000100 41 b4 91 3e 65 74 93 be 33 c3 95 3c cc ce 5a 3e
       0.28457835 -0.2879974 0.018281555 0.21367949
000110 53 fb 65 b5 8f 03 3b 3c fe 2e d2 bd 55 e5 aa bb
       -8.567487e-07 0.011414423 -0.10262869 -0.005215327
000120 0e 14 bb 3d 94 50 85 be 7c 43 92 be 77 7d b9 bd
       0.091346845 -0.2603804 -0.28567111 -0.09057134
000130 f8 ae c7 34 2b e8 e3 bd 93 4b eb 3d 3e 52 49 be
       3.7193945e-07 -0.11128267 0.11489024 -0.19660279
000140 ef ad 83 3d 22 ce e9 3d 56 fe ab be eb e1 03 3e
       0.064296596 0.1141627 -0.3359248 0.1287915
000150 3a 1c c9 b9 e7 f1 5f bc e3 84 79 3d 61 02 3c be
       -0.00038358738 -0.013668514 0.060917746 -0.18360282
000160 5b 6b bf 3c 0a fc 0f be b5 33 39 be 98 2e b2 be
       0.02336662 -0.14060989 -0.18086131 -0.34801173
000170 c3 63 c0 bc 6f cd 3f be 97 6a 88 3a 17 10 1d be
       -0.02348507 -0.1873071 0.0010407743 -0.15338169
000180 53 69 86 3d 3e 71 90 be 2b 3f 42 be 88 39 29 bd
       0.06563058 -0.28211397 -0.18969409 -0.04131463
000190 10 01 45 3b 41 14 60 be 3b 98 c9 3d 5f 2f ce bd
       0.0030060448 -0.21882726 0.09843489 -0.10067629
0001a0 62 af aa 3e 3f 95 0e be e2 47 88 3e 14 71 09 3c
       0.3333693 -0.1392412 0.26617342 0.008388776
0001b0 59 72 ea 35 41 99 4a bc be 76 c9 bd 97 6b fb 3c
       1.7467638e-06 -0.01236564 -0.098371014 0.030690951
0001c0 5d 87 a3 3c 73 78 2c 3d 31 2e 3c bd 60 b0 92 bd
       0.019962007 0.042107057 -0.04594249 -0.07162547
0001d0 de e1 64 ae 56 b1 c9 bd 8a fc c6 3d f3 c4 ab bd
       -5.204181e-11 -0.09848277 0.09716137 -0.083871745
0001e0 fc 3d a2 3e e5 38 00 3e 24 e1 11 3e d9 7b 10 3d
       0.31687915 0.12521704 0.1424604 0.03527436
0001f0 40 13 46 ba 0b 04 c3 3d 7e 70 17 be 5d 88 d0 3d
       -0.0007555969 0.095222555 -0.14789006 0.10182259

conv1.layers.2.lin_key.bias f4 [16]
000000 d4 47 9b 3d 12 2a 85 3d 0e 54 96 bd 46 2e 1c 3e
       0.075820595 0.06502165 -0.07340251 0.15252027
000010 f0 eb 84 3e 02 e6 88 be fa cc bd 3d 2f b0 22 bd
       0.25961256 -0.26737982 0.09267612 -0.039718803
000020 0b ee 28 3e ea 49 08 be 07 b1 2d bd 37 39 9a be
       0.16497056 -0.13309446 -0.042405155 -0.30121776
000030 2c 42 c9 bd 2a 83 ae 3e fc e3 95 bc 25 0f 9c bd
       -0.098270744 0.34084445 -0.018297188 -0.07620076

conv1.layers.2.lin_query.weight f4 [16, 8]
000000 47 7d 89 be 9a 41 df 3d a3 4b f2 bd fc b9 5f be
       -0.26853392 0.109011844 -0.11830833 -0.21848291
000010 e1 f9 18 bc a0 c5 15 bd 82 47 9b 39 93 27 28 bd
       -0.0093369195 -0.036565423 0.0002961718 -0.041053366
000020 80 6a aa 3e ef a0 1b be 78 31 44 3d 10 77 fa 3c
       0.33284378 -0.1519811 0.04789874 0.030574352
000030 d3 3f 38 bc f4 45 2e bd 6b 26 bb ba ad 6c 49 3d
       -0.011245686 -0.04254718 -0.0014278417 0.049175907
000040 e1 bf 94 3e c7 59 2f 3e a3 c4 87 3d 90 ab 50 3c
       0.29052642 0.17124091 0.06629302 0.012736216
000050 8d ea 26 b2 b0 69 a7 3b d1 0c a8 bd 5a 0c 4b 3e
       -9.715802e-09 0.0051090345 -0.082055695 0.1982893
000060 e2 9f 08 bc dc 76 22 3d 53 09 82 3e 69 8c 86 3e
       -0.0083389 0.039664134 0.2539774 0.26279
000070 09 ba c1 3a 6a 79 88 3d 35 09 10 bc 49 62 ee 3d
       0.0014780174 0.06663783 -0.008791258 0.1163984
000080 95 40 90 bd 0d 4a 2d be 50 0e cf 3c ea df 2b 3d
       -0.07043568 -0.1692278 0.02527538 0.041961588
000090 14 a1 72 af d8 76 b0 bd 15 09 43 bc d4 15 69 3d
       -2.2066998e-10 -0.08616418 -0.011904021 0.056905583
0000a0 b7 d6 f7 ba 67 4d 82 3e b8 5d 82 3e ce bf 60 3e
       -0.0018908595 0.25449678 0.25462127 0.21948168
0000b0 6a 72 8e 3c e6 c2 32 bd d7 ca 52 3b ba f4 04 be
       0.017388541 -0.0436429 0.003216436 -0.12983981
0000c0 9d 32 c6 3e 49 ab ed 3d 11 07 93 3d 49 d2 a1 3e
       0.3871049 0.11604936 0.07179082 0.31605747
0000d0 6c c3 ee 3b 47 54 af bb 55 7d b6 3a e6 f0 b9 bb
       0.0072864797 -0.005350623 0.001392285 -0.0056744693
0000e0 c2 78 2f be fe 9e 8d 3e fe d0 7c be cf 8f ff 3d
       -0.17135909 0.27660364 -0.24689099 0.12478601
0000f0 4f e0 3f bc 02 36 45 bd e2 be c8 3b 31 3b be 3b
       -0.011711194 -0.04814721 0.0061262706 0.005805396
000100 66 fb ea 3b 5c c9 04 be e0 20 92 3e 60 0a 15 3e
       0.0071710823 -0.12967438 0.28540707 0.14554739
000110 8b 1b 4f ba da e8 08 3e 50 94 49 3a 77 ec 92 3d
       -0.00079005276 0.13370076 0.0007689642 0.07174008
000120 0b 35 90 bd 98 67 d4 3e 10 4a aa 3b e2 58 8c 3e
       -0.07041367 0.41485286 0.005196817 0.27411562
000130 20 7e b3 b0 e4 5a 07 3d 04 ab 3e 3c ba de af ba
       -1.3059811e-09 0.033045664 0.011637453 -0.0013417818
000140 4a 96 52 3e f0 d3 10 3e ac 05 f4 3d e4 5f 70 3e
       0.20565143 0.14143348 0.11915144 0.2347408
000150 02 0a dc b2 0b 95 9e bd 6c a6 78 3a 15 46 e2 bd
       -2.5615922e-08 -0.077432714 0.0009485248 -0.11048523
000160 8e b9 9c 3e af 93 81 bd 7a 3a 9e 3d 73 ca 2f 3e
       0.30610317 -0.063269965 0.07725997 0.17167072
000170 58 bd 9f 3a 8a 2e e0 3a 64 37 43 3a 81 b4 2b bb
       0.0012187166 0.0017103713 0.00074469135 -0.0026200118
000180 d7 0a e0 3e f0 aa 83 3e 2f f5 d1 bd ea 27 22 3e
       0.4375827 0.25716352 -0.10251843 0.15835539
000190 70 45 57 2d ca cc 05 bd eb 23 4e 3d f3 1f 76 3e
       1.2236753e-11 -0.032666005 0.050327223 0.24035625
0001a0 cb a9 68 be 5c 9a d6 bd d4 db 86 be 32 ab fa 3d
       -0.22721021 -0.104786605 -0.2633959 0.12239684
0001b0 37 6c aa 9b 6c ff 0e bd 30 c9 23 3c 21 a7 3f be
       -2.8194073e-22 -0.034911558 0.009996697 -0.18716098
0001c0 c5 1d 8b 3e 9b 84 f3 bd a6 e4 29 bd 36 56 1f 3d
       0.2717115 -0.11890527 -0.04147782 0.038900577
0001d0 5b b8 b6 b5 df 2a e2 bd 77 4d 35 bc b4 19 c6 3d
       -1.3613711e-06 -0.11043333 -0.011065832 0.09672871
0001e0 17 9f 8f be af 3a 17 3c b0 0c 03 bd a6 6e 12 bd
       -0.28051063 0.0092303 -0.03199452 -0.035750054
0001f0 64 6f 3c bc 1f 8a db 3b a9 b9 39 bb 36 7a 0c 3c
       -0.011501167 0.006699815 -0.0028339422 0.008574059

conv1.layers.2.lin_query.bias f4 [16]
000000 bd 2b 1f be b7 14 ad 3e 91 6c d1 3d c4 b6 a6 3e
       -0.15544029 0.33804867 0.102257855 0.32561314
000010 e2 76 be 3d af 98 16 3e 14 20 ac 3c 51 c6 4e bc
       0.09300019 0.14706682 0.02101139 -0.0126205245
000020 f3 a6 54 3c 43 b5 7b 3e dd 82 8e 3e 9f 42 ca bd
       0.012979257 0.24580865 0.27834216 -0.09875988
000030 73 18 c5 bd 95 e0 da 3d 2d ca 1c bb ae f3 c7 bd
       -0.09623804 0.10687367 -0.0023924217 -0.09763275

conv1.layers.2.lin_value.weight f4 [16, 8]
000000 05 8a 1f 3d b2 34 8e be f8 63 d3 3d 47 e3 3e 3e
       0.038949985 -0.27774578 0.10321802 0.18641387
000010 c6 a9 c4 3c 89 fb c3 3e ff 68 65 be 9e b7 1c be
       0.024006736 0.38277844 -0.22403334 -0.1530442
000020 0c 3a ca 3e bc 63 59 3c a1 94 d7 3d 29 03 d9 3e
       0.3949741 0.013268407 0.105263956 0.42385224
000030 5a 42 9b bc 62 e6 a2 be 72 23 c3 be 19 98 f8 bd
       -0.018952537 -0.31816393 -0.3811298 -0.12138385
000040 69 9f 68 3e 7e 0e 9e 3e 8f b4 61 be b1 64 61 3d
       0.2271706 0.30870432 -0.22041534 0.055027667
000050 6e 41 f1 b5 2c 15 c0 be 3e 93 d7 bc 84 7d a2 bd
       -1.7974942e-06 -0.37516153 -0.026315328 -0.079340965
000060 68 0b 67 3d bf 24 b7 be 1e 43 02 be 85 e2 cc 3d
       0.056407362 -0.35770223 -0.12720916 0.10004143
000070 88 3f 3e b1 f2 56 54 3e 31 35 35 3d ff 38 23 3e
       -2.7684752e-09 0.20736292 0.04424018 0.15939711
000080 2f c0 25 be 24 d0 a6 bd a2 09 e4 ba be 2b a4 3d
       -0.16186593 -0.081451684 -0.001739789 0.08016156
000090 10 9d 95 bc 10 99 1b be 7e 16 e6 3d a9 cc aa 3d
       -0.01826337 -0.15195107 0.11234759 0.08339817
0000a0 19 ee 43 be 59 8e 6c 3d 55 21 9b 3e 03 8a 30 3e
       -0.19133796 0.05775294 0.30298868 0.17240147
0000b0 29 cb 51 3a e6 b7 f3 bd c7 61 c3 be 31 57 f3 3e
       0.00080029905 -0.1190031 -0.38160536 0.4752746
0000c0 fa 66 98 bd f8 d2 23 3e 93 6c ac be 56 0a e0 be
       -0.07441516 0.15998447 -0.33676586 -0.43757886
0000d0 56 1e 59 bc 84 66 2a be 52 ec e3 3e 43 60 a4 bd
       -0.013251862 -0.16640669 0.44516236 -0.08026173
0000e0 60 57 1b be 50 59 97 3e 12 0e 1f be 05 a9 9e be
       -0.1517005 0.29560328 -0.15532711 -0.30988327
0000f0 09 6e 69 3b 1b c9 86 bc a8 f8 c4 3e 27 76 52 3e
       0.0035618565 -0.016453316 0.3847096 0.20552884
000100 21 0b fe 3d 89 00 00 3f 2f 75 37 bc a6 fe 60 3c
       0.124044664 0.50000817 -0.011197372 0.013732588
000110 17 a7 44 3c cd 83 fc 3d 27 b5 84 be c0 7f 98 bd
       0.012002728 0.123298265 -0.25919458 -0.074462414
000120 62 67 2f be 4a a2 71 be 54 78 8c 3e 87 c3 08 3e
       -0.17129281 -0.23597065 0.27435553 0.13355838
000130 1e b6 56 b0 ff 3d b4 3e aa d7 07 be fa a5 54 be
       -7.811155e-10 0.3520355 -0.13265863 -0.2076644
000140 ef 87 95 3e 7c 03 3f be cb ec 85 bd 32 2b ca bd
       0.29205272 -0.18653673 -0.06539305 -0.0987152
000150 fe 50 5a b5 3d 33 7a bd 3c 4d 0c bb ca 07 f5 b9
       -8.132919e-07 -0.06108402 -0.002140834 -0.00046735845
000160 72 76 7d 3d af d8 0e 3c ce d8 ff 3e d3 a1 e3 3e
       0.061880536 0.008718654 0.49970096 0.444594
000170 4b 06 81 30 ad f5 99 3e d2 44 de be 80 8a 92 3e
       9.387774e-10 0.30070248 -0.4341188 0.28621292
000180 9e c4 e2 bd c6 09 f6 3d 6a 66 52 be c7 4a 0e 3e
       -0.11072658 0.12013583 -0.2054688 0.13895713
000190 23 c6 ca af 31 65 a9 be 0d 2c c4 3d f6 12 20 bd
       -3.688437e-10 -0.33085015 0.095787145 -0.039080583
0001a0 39 31 88 3d 08 e4 c0 be 25 d3 86 3d ad 49 92 bd
       0.066500135 -0.37673974 0.065832414 -0.07142959
0001b0 73 26 4e 35 92 e6 82 3b 8d 76 d0 3d b4 2c 0f 3e
       7.679693e-07 0.0039947713 0.10178862 0.13981897
0001c0 2b b8 fa bc e5 96 26 be 7d e0 7d 3e d5 c5 6e 3e
       -0.030605396 -0.16268499 0.24792667 0.23317654
0001d0 d7 69 1b ab e2 7d fa 3d f8 d2 07 3d cc fd 82 3e
       -5.5213944e-13 0.122310415 0.03316018 0.25584257
0001e0 17 61 73 3e 90 24 2b be 65 45 3a be be db 2c bd
       0.23767506 -0.16713166 -0.18190534 -0.04220175
0001f0 3e c9 e6 35 62 c5 e4 3d 2e 03 34 3e 71 5c 54 be
       1.7194905e-06 0.1117046 0.17579338 -0.20738389

conv1.layers.2.lin_value.bias f4 [16]
000000 8d 66 6b bc 14 1d 15 3e 6b f9 5e be 36 cf 2d be
       -0.014367712 0.14561874 -0.21774833 -0.16973576
000010 45 96 d1 3e d7 2f ad 3e d3 50 92 3e 4b 97 9f 3e
       0.4093496 0.3382556 0.2857729 0.31170115
000020 01 21 8e 3e 21 78 46 3e 44 95 c4 3e 83 44 9d bd
       0.27759555 0.19381763 0.3839513 -0.07679083
000030 f9 37 fe 3d dc d3 7b be 57 8a b2 bd a0 dc 92 be
       0.1241302 -0.24592537 -0.087177925 -0.2868395

conv1.layers.2.lin_edge.weight f4 [16, 2]
000000 ac 35 23 3d 1b 19 ad be fc 63 c4 be e6 15 a1 be
       0.039846107 -0.33808216 -0.38357532 -0.3146202
000010 b0 51 a4 3e eb 5b 23 bf 2e af 04 be ff 5f 9a be
       0.32093573 -0.6381213 -0.12957451 -0.30151364
000020 30 cf 23 3f 81 32 ae 3e 77 a7 3c 3e 55 a8 07 bf
       0.6398802 0.34022906 0.18423258 -0.5299123
000030 cd 00 ef be 05 62 50 bd f3 5b 1a bf 2d 3f ef be
       -0.46680298 -0.05087473 -0.60296553 -0.46727887
000040 a6 08 04 3f ff 78 46 bf 08 75 aa 3e 89 3d 22 bf
       0.51575696 -0.77528375 0.33292413 -0.63375145
000050 42 8b e5 be 50 59 56 3d 47 18 09 bf 4f 78 f8 be
       -0.44832808 0.05233127 -0.5355267 -0.48529288
000060 95 10 c7 3e d4 a1 b7 be 4d 56 50 be 72 75 2f 3f
       0.3887984 -0.35865653 -0.20345421 0.6853858
000070 b3 d4 1c 3f 72 b6 c7 be 46 c1 25 be 95 ee 40 be
       0.61262053 -0.39006382 -0.16187009 -0.18841012

conv1.layers.2.lin_skip.weight f4 [16, 8]
000000 a5 48 37 be eb c7 a3 3c a0 e7 95 bc 1e 7e 03 be
       -0.17898805 0.01999279 -0.018298924 -0.12841079
000010 ef c8 02 b7 b8 cc c0 3c 07 53 8c 3d cc a2 8a be
       -7.795387e-06 0.023535118 0.06851774 -0.2707733
000020 de b8 d6 3e b6 00 46 3d ce 92 f5 3e 37 81 82 3e
       0.41937917 0.04834052 0.47963566 0.25489208
000030 29 96 a7 18 cc 07 ba 3e 0d 33 bf bd 73 4b ac 3c
       4.332011e-24 0.36334074 -0.09335909 0.02103207
000040 a2 23 c9 3e be 91 c7 3e db b9 c6 3d f9 69 b1 3e
       0.39284998 0.3897838 0.09703418 0.34651163
000050 85 19 3a b4 ca 0e 0d bd 5f e2 d4 be 73 d2 fa 3e
       -1.7331884e-07 -0.034437932 -0.41578957 0.48988685
000060 af 23 e4 bd 45 a4 de 3c 58 33 60 bd c6 21 76 be
       -0.111396186 0.02717794 -0.054736465 -0.24036321
000070 c2 a2 55 3c f2 c1 2d be 9c 65 a3 3d 8b 14 00 bf
       0.013039293 -0.16968516 0.07978365 -0.50031346
000080 72 05 62 be 10 78 b5 bb 57 b7 aa 3c d1 cb e0 3e
       -0.2207239 -0.005537994 0.020839376 0.439055
000090 0a 6f 25 bc 98 8d c2 3e b4 43 af bd dc 2f aa bc
       -0.010097275 0.37998652 -0.08557835 -0.020774774
0000a0 65 7e ab 3e 25 ff 4d be 13 2b 91 3e 2e 9d 1f be
       0.3349487 -0.20116861 0.28353176 -0.15587303
0000b0 19 5a d4 3c ff 04 0f bd e2 2d 62 be cf 05 7f be
       0.025921868 -0.034916874 -0.22087815 -0.2490456
0000c0 61 6b d5 3e 9a 10 81 bc 7e 84 bb 3e b7 5d 43 3e
       0.41683486 -0.015754987 0.3662452 0.19078718
0000d0 32 69 83 bc 71 7d 2c be ba 7c 41 3d 03 f2 63 3e
       -0.016041372 -0.16844727 0.04723809 0.22260289
0000e0 2b dd 99 be e7 9e f8 bd 92 97 62 3d 28 6f 96 3d
       -0.3005155 -0.12139683 0.05532033 0.0734542
0000f0 bf 71 44 bb 51 1e 02 be 1e 6d d0 bd 01 f7 93 be
       -0.0029975025 -0.12706877 -0.101770625 -0.28899387
000100 65 ae 8b 3e a0 21 85 3d 0b b6 8a 3e 4a 81 02 3f
       0.2728149 0.06500554 0.27092013 0.5097853
000110 58 d7 55 32 a0 ab a7 3e f7 e5 8c be 6d 79 aa 3e
       1.2447195e-08 0.32748127 -0.275192 0.33295766
000120 76 39 a6 bc d8 cb 53 ba 17 06 04 3e cc 9f 93 be
       -0.020291071 -0.00080793863 0.12892948 -0.28832853
000130 f5 51 90 b3 fe 0d b2 be 9b f9 0f bd 8c 56 c8 be
       -6.7204304e-08 -0.347763 -0.03515015 -0.3912853
000140 7d 49 4e be 31 ae 8d be 60 f8 d8 bd 4e cd 63 3b
       -0.20145221 -0.2767196 -0.10594249 0.0034759822
000150 62 d3 a9 21 c1 e4 68 be d1 7b b8 be 4b e2 97 3e
       1.1507838e-18 -0.22743513 -0.36031964 0.29664835
000160 df b1 02 3f a9 40 ba 3e 84 74 5f be fe 05 a9 be
       0.5105266 0.36377457 -0.21821791 -0.33012384
000170 1e 6d 0d 2f 8e 31 d5 be 07 48 7a 3e 7b e3 6a 3e
       1.2862642e-10 -0.4163937 0.24441539 0.2293834
000180 7b 03 52 be 98 75 46 3e 38 cb d9 bd e6 f1 5e be
       -0.2050914 0.19380796 -0.10634464 -0.21771964
000190 ed e7 3b b7 57 06 89 3d fe 12 86 3d 13 97 3d bd
       -1.1200068e-05 0.06690662 0.06546591 -0.046286654
0001a0 52 1f 8d be c1 73 5e 3e e6 fe b1 3e f8 75 e6 3e
       -0.27562958 0.21723844 0.34764785 0.45011878
0001b0 79 6e fb 37 59 4e d1 3e 81 5a bd be 07 84 e9 3e
       2.9972975e-05 0.40880087 -0.36983112 0.4560854
0001c0 75 bb a2 be f0 7b 5f 3d d7 0b c2 be 69 22 9a 3e
       -0.31783643 0.054561555 -0.37899658 0.30104378
0001d0 07 cd 22 bc 8d 8c 9b bd 3d b1 91 be d7 d2 b3 bd
       -0.009936578 -0.07595167 -0.28455535 -0.08780449
0001e0 02 b2 c5 bd 55 25 c3 be 35 e1 cb 3c e7 93 88 3e
       -0.09653093 -0.3811442 0.02488766 0.2667534
0001f0 b8 6b c1 36 af 5c 2d be 7c 29 37 3c 87 ad 2b 3e
       5.7643883e-06 -0.16929887 0.011179324 0.16765414
